AI_6/my_model.pkl (torch, 12550 bytes, 9 tensors)

layers.0.weight f4 [16, 2]
000000 35 61 84 40 ad 77 94 c0 3d ee f6 3f bf 63 0e be
       4.136866 -4.639609 1.9291455 -0.13905238
000010 e6 63 be 3e fd 94 05 3f 73 47 f7 be 35 ba 8f c0
       0.3718559 0.52180463 -0.482967 -4.4914804
000020 a7 72 25 3f cd 59 84 be c8 44 8e 3f 6a ce 75 c0
       0.6462807 -0.25849763 1.111474 -3.8407235
000030 71 45 16 3f 0c a2 83 c0 38 5b 0b c0 6a fd 31 c0
       0.5869971 -4.113531 -2.1774426 -2.7810922
000040 95 e1 d1 bf 79 34 ab c0 06 32 92 3e 32 7a a3 3e
       -1.6396967 -5.3501554 0.2855379 0.31929165
000050 a6 36 ea c0 93 52 e2 3e bf 14 f9 3f ba 13 38 3f
       -7.319171 0.44203624 1.9459456 0.719051
000060 98 e5 59 3e 2a 84 cc 40 73 c1 ab 3f f5 1e bc bf
       0.2127899 6.3911333 1.3418411 -1.4696947
000070 43 ba fc 40 c0 81 a0 3f fe 1f 4c 3f bb c4 86 bf
       7.897737 1.2539597 0.79736316 -1.0528787

layers.0.bias f4 [16]
000000 57 ae ce bf 87 58 29 3e 80 af 25 bf 4b 5f 94 bf
       -1.6146954 0.16537677 -0.64720917 -1.1591581
000010 43 fc 35 bf 7d 7a 8b bf 8d ed 00 c0 83 39 2e bf
       -0.71088046 -1.0896755 -2.014499 -0.68056506
000020 25 11 8c bf cb 16 db be dc 18 8d bf 20 99 61 3e
       -1.0942732 -0.42790827 -1.1023211 0.22031069
000030 da cb 84 bf df da a8 3f 0b 64 b2 bf 7a e8 58 3f
       -1.037471 1.3191794 -1.3936781 0.8472973

layers.1.weight f4 [32, 16]
000000 e2 47 ef be 9f 2f 14 bf 10 39 a8 3d 3d 87 3a 3f
       -0.4673453 -0.57885164 0.08214009 0.7286261
000010 6c 39 03 3e 83 0e 05 3f fd 20 99 3f eb 85 8e 3f
       0.12814873 0.5197527 1.1963192 1.1134619
000020 71 0d 2c 3f 2c 21 26 be 78 7a 1d 3f 3b 2b ce be
       0.6720801 -0.16223592 0.61515 -0.40267357
000030 ce e8 8c 3d 87 35 1d bf a7 4d 8e bd 52 c8 83 be
       0.068803415 -0.614098 -0.06948405 -0.2573877
000040 c4 9d 52 be f3 bf a9 bd c0 a9 c3 3c 77 87 88 3d
       -0.20567995 -0.082885645 0.023884654 0.06666463
000050 b2 db 49 3e ab b6 d4 bd 9f 55 f7 bc 02 e6 ca bc
       0.19712713 -0.10386404 -0.030192195 -0.02476788
000060 ff 12 b9 bd e0 b2 4a 3c 94 05 d2 bc c8 f4 6d 3c
       -0.09036826 0.012371749 -0.025637425 0.014523692
000070 f3 6d 6b be 70 e1 64 be d9 6e c7 3e 61 f7 be 3d
       -0.22991161 -0.22351623 0.38951758 0.093245275
000080 42 01 40 bf 3d b4 33 be 38 62 3b be 85 e1 24 bf
       -0.7500192 -0.17549224 -0.18299186 -0.64406615
000090 04 3b ff bd 0b e2 4c bf 12 5b 01 bf 24 39 9b be
       -0.12462428 -0.80032414 -0.5052959 -0.30317032
0000a0 8b ac 48 bf 80 4d 7a bc f8 69 e6 bf 66 14 45 3e
       -0.7838828 -0.0152772665 -1.8001089 0.19246063
0000b0 ff eb ba bf 69 52 94 3f 32 a4 c8 bf 19 4b 3e 3f
       -1.460327 1.158765 -1.5675108 0.7433334
0000c0 54 7d f5 bf 5a b8 49 3f d0 43 d8 bd c5 03 8b be
       -1.9178872 0.78796923 -0.10559809 -0.27151313
0000d0 b8 d8 f7 bd 33 28 f7 bd 63 54 6b be 98 aa 52 3f
       -0.12101883 -0.12068214 -0.2298141 0.82291555
0000e0 49 f3 a9 3e a4 da 1a be 9f dd b4 be 1b dd 54 3f
       0.33193424 -0.15122467 -0.35325333 0.8314988
0000f0 f0 e7 d6 bf c0 f0 f4 3e a9 06 ec bf f3 cb 45 3e
       -1.6789532 0.47839928 -1.8439533 0.19316082
000100 70 41 2a be cd 90 d3 3c 30 14 63 3d 63 f1 fd 3e
       -0.16626525 0.025825882 0.055439174 0.49598226
000110 c9 5d f2 3d 33 ec 92 3e aa b7 4f be 0b 44 e2 bc
       0.11834294 0.2869583 -0.20284906 -0.027620336
000120 e8 6b 24 3f 00 60 04 bb 34 dd 03 3d aa 0b 16 bf
       0.6422715 -0.0020198822 0.032193378 -0.5861155
000130 cc eb 11 be 59 ce e8 3e e5 61 a5 bf d2 59 d4 3e
       -0.14250106 0.4546993 -1.29205 0.41474777
000140 07 1d 84 be 0a a5 0c 3d 10 b3 f3 3d 80 cd 6d be
       -0.25803396 0.03433708 0.11899388 -0.23222923
000150 78 cb 41 3d a8 38 91 be 70 1a 52 be 6e f5 23 3f
       0.047313184 -0.28363538 -0.20517898 0.6404637
000160 26 72 e3 3d b0 a7 01 3d 21 24 78 3f 38 1a 23 3f
       0.111057565 0.03165406 0.9693013 0.6371188
000170 7c 16 e6 3f e0 eb 2a bf f8 2f 6c bf 5f 3e a0 be
       1.7975612 -0.66766167 -0.92260695 -0.31297585
000180 4a 35 21 3e 3e bb 1b bf 44 72 c0 bd d2 3d 40 3e
       0.15742984 -0.60832584 -0.093967944 0.18773583
000190 dc 05 52 be 62 18 17 3d c8 ac 87 bc ac 1c ad be
       -0.20510048 0.036888488 -0.01656188 -0.33810937
0001a0 5c 56 fe bd c4 a8 59 3e ad 5d 5b bd 72 78 f1 be
       -0.124188155 0.21255785 -0.053556133 -0.47162205
0001b0 c3 26 96 3d 51 fa eb be 0e 8b 64 be 1c b3 a4 be
       0.07331612 -0.46089414 -0.2231867 -0.321679
0001c0 87 0f f1 3e d3 70 40 be 80 8b f1 3c 7d d4 3e bf
       0.4708216 -0.18793039 0.029485464 -0.7454298
0001d0 80 72 da 3d b4 3d 01 bf 3d 87 d0 bd e1 59 51 bf
       0.106663704 -0.50484776 -0.10182045 -0.8177777
0001e0 b7 24 a4 bf c0 18 e5 bb 05 cc 2d bf 26 1a 44 be
       -1.2823704 -0.006991476 -0.67889434 -0.191506
0001f0 da fa 32 bf 90 22 6d 3e cf 91 09 be 04 b7 35 3e
       -0.6991402 0.23157716 -0.13434528 0.17745596
000200 bd df 8f bf 0b fb 2f be 2a 7a 49 3e b2 16 96 3e
       -1.1240155 -0.17185609 0.19675508 0.2931419
000210 20 60 b0 3c 99 00 20 3d ef 30 31 3e 7c db 2d 3e
       0.021530211 0.03906307 0.17303823 0.16978258
000220 66 55 78 3e 8a c2 29 be a5 ff 62 be 34 97 94 3d
       0.24251327 -0.16578117 -0.22167833 0.07255402
000230 70 60 74 bf 3e 0d ae 3c 03 e5 30 3f 2f 2a f2 bd
       -0.9545965 0.021246549 0.69099444 -0.11824452
000240 41 f3 24 3f 1b 1e 72 be 88 cb 47 be 29 ec a3 be
       0.64433676 -0.23644297 -0.19511235 -0.32016113
000250 ee 9c 01 3e 2f f0 7a be 40 39 5d 3c 87 81 2b bf
       0.1265752 -0.24505685 0.013502419 -0.6699452
000260 0b 91 3e bf ea 74 12 3e a0 55 83 bf 53 54 1a be
       -0.7444007 0.14302412 -1.0260506 -0.1507123
000270 88 54 1f 3d 11 22 8b be ab c3 4e be b2 54 12 bd
       0.038898975 -0.27174428 -0.20191829 -0.035725303
000280 7a 29 f1 3e ea 0b f6 be 00 ad a3 3b e0 ac cb bd
       0.47101957 -0.48055965 0.0049949884 -0.09945083
000290 f6 8d 0a 3e 23 69 aa 3b f6 65 8a 3e 0f a5 83 bc
       0.13530716 0.0052005216 0.27030915 -0.016069917
0002a0 d9 52 cc 3e a2 3b 51 3e 24 47 b9 3e f4 d7 f5 bd
       0.39906958 0.20432904 0.36187088 -0.120040804
0002b0 03 be 66 3c 32 05 73 bf c6 44 3b 3f ec 67 07 bf
       0.014083388 -0.949298 0.73151815 -0.5289295
0002c0 f4 3e f0 3f 15 0a b7 be de 29 2d 3e 7c bb 71 3e
       1.8769212 -0.3574988 0.16910502 0.23606676
0002d0 a4 e7 81 3d fa 0e a8 3e 92 69 46 3f 6d 82 94 bd
       0.0634301 0.32823926 0.7750484 -0.07251439
0002e0 52 21 5e 3e a8 64 b7 bd c8 47 1b bf 3d 51 8c be
       0.21692398 -0.089547455 -0.60656404 -0.2740573
0002f0 07 20 e5 3f bc b6 03 c0 7a 6b 0d 40 9d 5c a9 bf
       1.7900399 -2.0580282 2.2096848 -1.3231388
000300 d1 d1 26 be d2 59 f5 bd 30 da fe bc 3c e5 aa bd
       -0.16290976 -0.119800225 -0.0311099 -0.08344504
000310 70 a8 6b 3e ec 0c 41 be 3e 7a b8 bd 32 71 07 be
       0.23013473 -0.18852586 -0.09007691 -0.13226774
000320 33 8f 55 be b8 83 1a bd 16 a4 ef 3d de 53 46 be
       -0.20855407 -0.037723273 0.11701219 -0.1936793
000330 ca 06 0c bc 35 d7 07 3d 4c a9 0d 3e 1d cc 60 be
       -0.0085465405 0.03316422 0.13834113 -0.21952863
000340 8f c8 92 be d7 f4 08 3e 40 ef 3e bd c3 c7 44 3e
       -0.2866864 0.13374649 -0.046614885 0.19216828
000350 a0 f3 f9 3d cb 3a 05 be 8a 58 c8 bd 78 3d bc 3d
       0.12204671 -0.13010709 -0.097825125 0.09191412
000360 4f 10 e2 3d 34 95 07 be 1a fd 1c bf c3 c9 91 3e
       0.11038267 -0.1324051 -0.613237 0.28474244
000370 9a e1 c2 3e 63 87 b9 be 4b 0f d8 be 00 f1 91 be
       0.38062745 -0.36236104 -0.42199168 -0.2850418
000380 5a e9 b3 bd 2f 6f bd bd e0 d1 30 bd 1b 27 eb bd
       -0.08784743 -0.09249722 -0.043168902 -0.11482068
000390 e4 49 43 3e ea 79 ca 3e 9a 47 c9 3c 48 7a 8a bd
       0.19071156 0.39546138 0.024570275 -0.067616045
0003a0 fe 91 14 be e2 90 0e be 70 3b 00 bd eb ba 3b be
       -0.14508817 -0.13922456 -0.031306684 -0.18333022
0003b0 aa 6e b0 be 16 85 17 bf 8c c8 a3 3f 24 05 18 bf
       -0.3445943 -0.5918745 1.2795577 -0.59382844
0003c0 68 3e 16 3f dd 40 d9 be c8 75 4f bd 8a d4 8f 3e
       0.58688974 -0.424323 -0.050649434 0.28091842
0003d0 7d de 51 3e a8 ed 96 3e f9 31 bf 3e c8 bb b2 3e
       0.20495029 0.29478192 0.37342814 0.3490889
0003e0 f6 2c 65 3e 50 c8 9c 3d 60 b3 8e 3f fb 34 b2 be
       0.22380432 0.07655394 1.1148491 -0.34806046
0003f0 8d 3d 6f be f6 6b 4b bf 27 6b a6 bb 68 a1 0c bf
       -0.23363324 -0.7946161 -0.0050786915 -0.54933786

layers.1.bias f4 [32]
000000 fd a8 14 c0 9a 9a 2d be 3e 34 69 40 89 9b ee be
       -2.3228142 -0.16953507 3.6438136 -0.4660304
000010 db 15 3c bf a1 46 6b c0 67 ff 30 be 5a b2 f8 3f
       -0.7347085 -3.6761858 -0.17284928 1.9429429
000020 dd 42 e9 be 03 51 a3 3f a7 dc 98 bf b3 36 ba c0
       -0.45558825 1.2759098 -1.1942338 -5.819177
000030 69 86 bb be 14 5a 64 bf 18 3b bd bf 8f 35 0a c0
       -0.36625984 -0.8919995 -1.4783659 -2.159519
000040 1c 0f 69 c0 ef 4a 2b c0 8e 6d 0c c0 ce 6e 85 bf
       -3.6415472 -2.6764486 -2.1941867 -1.042444
000050 06 11 ab be 18 d3 eb 3f 91 88 57 bf 95 80 81 c0
       -0.33411425 1.8423796 -0.8419276 -4.046946
000060 bd a1 05 bf e9 5d ff bf c7 d4 4a be 7c 65 8e be
       -0.5219992 -1.9950534 -0.1980773 -0.278118
000070 d8 b6 45 40 04 29 2d bf 44 af 51 3e d4 be b9 be
       3.089285 -0.6764071 0.20477015 -0.36278403

layers.2.weight f4 [32, 32]
000000 96 fa 2f be 1f 5a 22 3e 11 cf da be a5 a6 33 be
       -0.17185435 0.15854691 -0.42736104 -0.17544039
000010 4b f6 29 3c d7 48 7a 3f d1 c9 07 3e 9f 04 be be
       0.010373662 0.97767395 0.1326058 -0.371129
000020 38 d9 09 3f fc 6e e3 bc ea b9 e1 3c e8 c3 25 3f
       0.53847075 -0.027762882 0.027554471 0.64752054
000030 74 1d 85 bd 98 58 91 3e fb e8 df 3e f1 ed 05 bf
       -0.06499758 0.28387904 0.43732437 -0.52316195
000040 ed e1 29 3f cb 6c 40 3f d3 f3 35 3b 79 df 89 bc
       0.6636036 0.75166005 0.0027763739 -0.016830193
000050 86 b5 31 3e 91 90 bb be 50 74 6c be 9b a6 f6 3d
       0.17354402 -0.36633733 -0.23091245 0.12043496
000060 3a da 1e 3e 20 66 14 3e 5c 8d 95 bc ca ba 13 3e
       0.15512934 0.14492083 -0.018255882 0.14426723
000070 34 74 01 bf a3 69 51 bf b2 63 9b bd 12 a1 e8 bd
       -0.50567937 -0.81801814 -0.07587375 -0.11358847
000080 2d 81 9a 3e a7 0c fd bd 18 32 b0 bf 30 e1 41 3e
       0.30176678 -0.12355929 -1.3765287 0.18933558
000090 90 22 79 be 15 09 5d 3e 21 3e 9e 3d 07 43 07 3e
       -0.24329591 0.21585496 0.07726694 0.13209163
0000a0 f1 1f 06 3e 81 61 bf 3d b7 40 11 3d 2f 72 f1 be
       0.13098122 0.09344769 0.035462108 -0.47157428
0000b0 d9 cb 27 3e 91 86 f8 3d bc f6 2b bf 3c df 07 3f
       0.16386355 0.121350415 -0.6717336 0.53075004
0000c0 97 f5 76 3f e5 1e 95 bf 3d 0d 09 3f 85 e3 34 be
       0.9646849 -1.1650053 0.53535825 -0.17664917
0000d0 02 9b b1 3d 1a ac 35 be ef c6 b8 be 64 9a 73 3f
       0.086721435 -0.17741433 -0.36089274 0.95157456
0000e0 e6 6e 6b 3d 8c 44 95 3e c4 3f 15 be 78 2a 41 3d
       0.057478808 0.2915386 -0.14575106 0.047159642
0000f0 97 3b 67 bf 5f d2 ca be ae e5 69 bd 86 f0 8e 3d
       -0.903253 -0.39613625 -0.057103805 0.0697947
000100 70 14 82 be 78 fc 5b bd 55 c0 56 3c 6d 3b c5 3d
       -0.25406218 -0.05370757 0.013107379 0.09630475
000110 32 d6 5b 3e d0 78 d8 3e ed 10 99 bd 53 7d f7 bc
       0.21468428 0.42279673 -0.074739315 -0.030211126
000120 db ca 12 3d 3d b8 55 3e f3 9a f5 3d d7 cf 3f 3e
       0.03583799 0.20871063 0.11992445 0.18731628
000130 e5 0d 9c 3c da 55 07 3e 34 89 c8 be 15 fa 1a 3d
       0.019049594 0.13216344 -0.39167178 0.037836153
000140 03 8f 4a 3e c3 23 3f bf 4f 09 55 be a6 7b 6e be
       0.19781117 -0.74663943 -0.20804332 -0.23289356
000150 71 b3 8d bc a8 b1 c0 bd 72 99 5e 3e f3 07 da 3e
       -0.017297478 -0.09408885 0.21738222 0.4258419
000160 4c 45 a5 3d a6 94 25 be e7 1e ad bd 68 3f dc 3d
       0.08069858 -0.16169986 -0.0845316 0.10754281
000170 a0 ca 94 be 59 c0 24 3f 6a 91 33 be 20 f7 2a be
       -0.2906084 0.64356 -0.1753594 -0.16695833
000180 a5 8f bf 3e 61 ef 81 bd e2 87 04 bf 80 3c 0e 3e
       0.3741428 -0.06344486 -0.5176984 0.13890266
000190 28 a8 95 3c 80 0f 7c 3e e6 9c a1 3d dc ad 5d be
       0.01826866 0.24615288 0.07891254 -0.21648353
0001a0 c5 0f 60 bd 10 72 06 be d6 5b 8d 3e ea 43 59 bd
       -0.05470254 -0.13129449 0.27609128 -0.053043284
0001b0 ba e7 a8 bd 65 17 60 bd 9e d5 a2 3d 94 3d b1 3e
       -0.08247323 -0.05470981 0.079509005 0.34617293
0001c0 c8 db 54 3c a8 b3 d8 bd fc 0f 86 3e 73 c8 f5 3d
       0.012991853 -0.10581142 0.2618407 0.12001123
0001d0 0b 7b 19 3e 98 be e9 bd aa 5f e8 3c 4d 68 87 bd
       0.14988343 -0.11413306 0.028365929 -0.06611691
0001e0 24 f4 cb bd 43 5b 39 3e f4 28 c5 be d7 86 03 3e
       -0.099586755 0.1810122 -0.38507807 0.12844406
0001f0 07 72 1e be 94 25 6b bd 0c 91 0f be dd 5c 61 be
       -0.15473185 -0.057408884 -0.14020175 -0.22008081
000200 f6 1c 11 be 02 9e 4c 3d 22 b4 d3 bd 29 66 0d 3e
       -0.14171204 0.049955375 -0.10337092 0.13808502
000210 7b 0b 6e 3e 46 d2 16 be d8 cc 00 be e5 28 5c 3e
       0.23246567 -0.1472865 -0.12578142 0.21499975
000220 31 82 d3 bd 73 f4 d4 3c dc e8 87 3e 4f 43 1f 3e
       -0.103275664 0.025995469 0.26544845 0.1555302
000230 00 60 bf bd 0d 34 27 3e ce 2d 1d bd 4a a6 44 3e
       -0.093444824 0.1632845 -0.03837376 0.19204059
000240 81 97 9d bc e5 e0 eb bc fd 16 37 3e 49 f4 f4 3d
       -0.019237282 -0.028793762 0.17879863 0.11960656
000250 43 82 75 bd 3d 6c a5 3c 82 c8 7f 3d 57 ce 4c 3e
       -0.05993868 0.020193214 0.06244708 0.20000587
000260 0e 2b 03 be d5 1c 83 bd 5a 33 07 be 27 d1 7a 3d
       -0.12809393 -0.06401984 -0.13203183 0.06123462
000270 fb ed a0 3d 8f 0d bd 3e dc 56 17 3e 14 5f 19 bd
       0.07857891 0.36924407 0.14779228 -0.03744419
000280 9e 12 85 3e 27 7f 2c be 1c 7a bc be 34 a6 d1 3c
       0.25990766 -0.1684538 -0.36811912 0.025591947
000290 b1 d5 49 bd 9e eb 06 3f 33 1c 92 bd 20 9c 50 be
       -0.049276058 0.52703273 -0.07134285 -0.20372057
0002a0 9a 60 21 be 56 3a 8a be d7 ea 0d 3e dc 48 f2 bd
       -0.15759507 -0.26997632 0.13859116 -0.11830303
0002b0 4c 3d 17 3e 0e 19 86 bd 59 d5 12 3e 14 32 21 bd
       0.14769477 -0.065477476 0.14339198 -0.0393544
0002c0 d4 c6 c5 3d 74 21 39 3b 77 14 c3 3e 21 19 0f be
       0.09657064 0.00282487 0.3810155 -0.1397443
0002d0 ad c8 84 3c c5 14 af be 10 f8 58 be 02 eb 98 3c
       0.01620897 -0.34195533 -0.21188378 0.018666748
0002e0 7c a3 99 3d 6b af 49 3e 3b 29 29 3c f0 e7 1d be
       0.07501885 0.19695823 0.0103247715 -0.15420508
0002f0 15 16 5b bf 22 84 e9 be 8f 7a f5 bd 9b 01 33 3e
       -0.8558057 -0.45608622 -0.11986267 0.17481081
000300 b0 0f 00 3f e2 c1 bd bd c4 63 0a be 0f 4a 85 bd
       0.5002394 -0.09265496 -0.1351462 -0.06508266
000310 09 8d 9a bd 63 a9 f6 3d 9b 56 06 be e4 60 c9 bc
       -0.075464316 0.12044027 -0.13118975 -0.024582334
000320 0e 1a 9b b9 b2 f0 91 bd 82 04 71 3e 3d 27 75 3d
       -0.00029583316 -0.07125987 0.23536876 0.059851874
000330 e3 9b ed bd c4 16 51 bd a0 2b bf 3d f5 c0 b2 3e
       -0.11601999 -0.0510471 0.09334493 0.3491284
000340 30 c6 c6 bd 8c 7c 00 bd 59 22 a1 3e 6c d1 1a 3e
       -0.0970577 -0.031368777 0.31471518 0.1511895
000350 ec 79 0f bb 63 a7 3d be a2 6f f7 bc 21 e6 95 bd
       -0.002189274 -0.18520884 -0.030204598 -0.07319284
000360 6e 36 a1 bd fa 95 d9 3e ad a6 fb bd a9 07 ae bc
       -0.0787171 0.42497236 -0.1228765 -0.021243887
000370 53 d8 a4 3d 13 e2 65 be 76 d0 3d 3d 65 df 5c be
       0.08049073 -0.22449522 0.046341382 -0.21569593
000380 f1 e3 d5 bd ac 80 27 3d 92 19 e3 bd d3 8b 57 be
       -0.10443867 0.040894195 -0.110888615 -0.21049432
000390 08 e0 59 3e 6e dd 65 3f 2f f3 49 3e bf d4 fa 3e
       0.21276867 0.89791 0.19721673 0.48990437
0003a0 ad 82 e6 3d c1 23 58 be dc b5 79 3e 67 4e fd bd
       0.11255393 -0.21107389 0.2438578 -0.1236847
0003b0 ab 1a 00 be 2b 15 57 3e ca 9d 3e be 84 18 9e 3e
       -0.12510173 0.21004169 -0.18614879 0.3087808
0003c0 b4 19 0c 3e 9d 77 fd be 83 c6 d3 3e c4 da 56 3b
       0.1368168 -0.4950532 0.4136239 0.0032784203
0003d0 40 07 e7 bd 56 f1 7d be b3 be 27 3e 43 74 28 3d
       -0.1128068 -0.24799094 0.1638134 0.0411265
0003e0 a4 15 90 3e 24 d3 59 3e fd 90 b2 be 0d 2f df bd
       0.2814151 0.2127195 -0.34876242 -0.10897646
0003f0 a7 44 ce 3c 76 fb f7 3e 26 c3 27 bd 02 44 20 3e
       0.02517922 0.48434037 -0.040957592 0.15650943

layers.2.bias f4 [32]
000000 e8 62 14 c0 85 ad 07 c0 e4 ee 64 bf 70 95 84 bf
       -2.3185368 -2.1199658 -0.8942702 -1.0358105
000010 84 45 8c bf dd 70 75 bf 1d 7c 7e bf 42 ae 8c bf
       -1.0958714 -0.9587534 -0.9940813 -1.0990679
000020 25 d8 2b be d3 6f 30 40 a9 7f 8e bd eb 2b 59 3f
       -0.16781671 2.7568252 -0.06957943 0.8483264
000030 16 c6 6b 3f 5e e8 ac be ca 7f 24 be 9e 6e 2c bb
       0.9209913 -0.33771032 -0.16064373 -0.002631105
000040 ba ca f1 bf a7 b6 89 3f cb 0a d8 3f 91 fa 42 3f
       -1.8889992 1.0758866 1.6878294 0.76163584
000050 67 8b 99 bf c4 cf 8c be 96 50 03 c0 3e 19 dd bd
       -1.1995667 -0.27502263 -2.0517936 -0.1079583
000060 45 03 c4 3f 01 8c 54 be 24 9d b7 3e c8 97 25 3f
       1.5313498 -0.20756532 0.35862076 0.64684725
000070 d2 5f 15 be ed 6a 55 bd f7 88 09 bf 42 d5 bc 3d
       -0.14587334 -0.052103925 -0.53724617 0.09220363

layers.3.weight f4 [16, 32]
000000 24 c9 43 be a7 65 66 bd 43 0f 70 3e 40 e9 b3 bc
       -0.19119698 -0.056249287 0.23443322 -0.021961808
000010 af 39 25 3e 4d 42 f9 3d 57 e4 2f 3e 0b 3a 7b 3d
       0.16135286 0.12170849 0.17176948 0.06133465
000020 8f d1 05 be 84 9a 91 3a 9c e1 e4 bd f8 5b 36 bd
       -0.13068222 0.0011108671 -0.11175844 -0.044521302
000030 0a 1f be 3e 52 97 49 3e 78 1d 0a be e9 45 6e be
       0.37133056 0.1968663 -0.13487804 -0.23268856
000040 e8 00 b1 3c 16 c3 88 be 53 71 ee 3e 32 52 89 be
       0.021606877 -0.2671134 0.46570835 -0.26820523
000050 3e 51 05 bd 8b ed b8 be bc d1 fb be df 38 22 be
       -0.03254818 -0.3611873 -0.49183452 -0.15842007
000060 d0 3f 46 3d fe 76 a7 3d e5 a4 59 3c b0 5a 32 be
       0.0484007 0.08176993 0.013283943 -0.17417407
000070 82 48 29 3c 4c b4 0b be ee 4b 0e 3e ab f4 2b 3e
       0.010332229 -0.13642997 0.13896152 0.16792552
000080 bd c3 21 be e9 f4 3d be 63 68 43 bd 1f f3 10 3e
       -0.15797324 -0.18550457 -0.047706973 0.14155243
000090 01 3e 8a bd 65 06 72 3d 1b 9f 34 3e db 7f 12 3d
       -0.067501076 0.05908813 0.17638819 0.035766464
0000a0 c0 b8 af 3d 33 af 04 be 0e 6d d0 3d f4 57 32 bc
       0.0858016 -0.12957458 0.101770505 -0.0108852275
0000b0 66 6b db bd 16 b2 9d 3c a2 78 59 bd 6b 3f 21 be
       -0.10713844 0.019249957 -0.05309356 -0.15746848
0000c0 13 48 f0 bd 6d 2a 0c 3d 52 f9 c4 bc 9e 04 c3 bd
       -0.11732497 0.034220148 -0.024044666 -0.09522365
0000d0 d5 e2 d5 bd 98 e5 b4 bd 38 64 ef 3c 5d 7b 1d bd
       -0.104436554 -0.08832854 0.029222593 -0.038447727
0000e0 4b 84 21 be 2b 05 2c 3d 3b ef 10 be 86 54 7f bc
       -0.15773122 0.041997116 -0.14153759 -0.015584117
0000f0 59 95 ac 3d 13 7e d9 bd 03 82 a1 3b c7 e2 f3 bc
       0.08426923 -0.1061975 0.0049288287 -0.029771222
000100 8e 11 1d bd 61 b5 7d 3c dc 3e a8 bd 3d ae c3 3c
       -0.03834682 0.015485139 -0.082151145 0.023886794
000110 bd 67 6c bd 23 0d 7e bc df 6e 24 be db 32 26 be
       -0.05771612 -0.015506062 -0.16057919 -0.16230337
000120 a9 99 d5 bd 32 62 24 be 3f 87 e0 3c 52 e5 30 bd
       -0.10429699 -0.16053084 0.02740824 -0.043187447
000130 23 d7 be 3c ec 6c b4 bd 68 56 95 bd 25 0e ae bc
       0.023295945 -0.08809838 -0.07291871 -0.021246979
000140 0f 13 af bc b8 07 d3 3d 08 71 28 3d cb 38 09 3e
       -0.021371393 0.103042066 0.04112342 0.13400571
000150 92 60 a8 bd d3 f4 3d 3d 70 e8 92 3d 14 5f 2c be
       -0.08221544 0.04637606 0.0717324 -0.16833144
000160 d2 56 f1 bd 8c f0 bc bd 20 67 92 bc 21 25 c8 bd
       -0.11784138 -0.09225568 -0.01787144 -0.09772707
000170 f0 0b 83 bc 3f c5 d5 3d b6 e1 ac bd 1e 4f 86 bd
       -0.015996903 0.10438012 -0.084414884 -0.06558059
000180 85 a4 21 be 20 c5 9d bc 5d 07 84 be 3a 29 45 bd
       -0.15785415 -0.019259036 -0.25786868 -0.04813502
000190 f4 3a 9a bd 9d 68 c4 bc e5 9c 33 bd 69 1c 9a be
       -0.07530776 -0.023975665 -0.0438508 -0.300998
0001a0 64 ca 85 3d c5 38 b4 bf 5e fa ad bc 52 a0 1b 3f
       0.065327436 -1.4079825 -0.021237548 0.60791504
0001b0 f5 5a 30 be be c9 05 bc 40 f7 1b be 50 9f bd 3e
       -0.17222197 -0.008165775 -0.15231037 0.37035608
0001c0 0f 22 4c 3b 78 b9 3f bf a7 76 4b 3e 3b fd 4a 3d
       0.003114823 -0.7489238 0.19869481 0.049557906
0001d0 61 23 a4 3b cc 98 95 3e e0 60 0d be 3e 78 e0 bd
       0.0050091003 0.29218137 -0.13806486 -0.109604344
0001e0 31 b9 18 3e 20 f9 93 bc 46 d6 13 3d 87 c1 0a 3e
       0.14914395 -0.018063128 0.03609302 0.13550387
0001f0 d5 40 ea 3d 66 66 1d 3e 66 4b 17 be 64 1b fb bd
       0.11438147 0.15371093 -0.14774856 -0.12261084
000200 c6 05 4a be 4e 27 32 3e aa 67 f6 3a 79 8c 79 3d
       -0.19728765 0.17397806 0.0018799205 0.06092498
000210 68 d6 fb 3d c9 51 6c 3e 0e 63 6b 3d f7 3f 26 3e
       0.12296754 0.23078074 0.057467513 0.16235338
000220 5f 3e 10 3e 3f cb 7c be dd 8a 45 bb fe f3 8f bb
       0.14086293 -0.24686907 -0.0030142583 -0.0043931
000230 a6 e5 9e 3d ef 91 1a be 80 59 70 3d 9a a8 8c bd
       0.07758646 -0.15094732 0.058679104 -0.06868096
000240 62 b5 e9 3d 3c 41 2e be bd dc 90 be 57 73 8a bd
       0.11411549 -0.17017072 -0.2829341 -0.067602806
000250 1f 60 21 3d 8a 56 ea bd 60 d6 1c bc fe 8f 80 3d
       0.03939831 -0.11442287 -0.009572595 0.06277464
000260 3f db 64 bd 0c b8 13 be 21 da 7c bd d7 85 82 bd
       -0.055873152 -0.14425677 -0.06173146 -0.06373184
000270 b7 45 19 3e 2a d3 84 3d 10 1d cb bc 43 10 de bd
       0.14968 0.06485589 -0.024794132 -0.108429454
000280 14 1c 3b 3e 32 49 ee bc 30 d3 3c 3e 54 78 4a be
       0.1827243 -0.029087637 0.18439937 -0.19772464
000290 1b 05 95 3a 07 00 62 bd 91 43 75 bd 5d e9 42 be
       0.0011369319 -0.055175807 -0.05987889 -0.19034334
0002a0 9d f8 94 bd 38 1a 73 be 94 55 cc 3c ed df a5 bc
       -0.07273982 -0.2374047 0.02494315 -0.020248378
0002b0 54 44 23 bd 56 d4 12 3e bb dc 1d 3e 37 02 3b be
       -0.039860085 0.14338812 0.15416233 -0.18262564
0002c0 ad 97 25 3e 2d 47 e8 bc 77 09 dd 3e f4 8a 61 3d
       0.16171141 -0.028354252 0.43171284 0.055064157
0002d0 05 17 a1 3d bd 99 1b 3e 6f 59 08 be 20 26 bf bc
       0.07865719 0.15195365 -0.13315366 -0.02333361
0002e0 11 d8 d1 be 5b cc b0 bd ba f1 a3 3c 2e cd cb bc
       -0.40985158 -0.08632728 0.020012725 -0.02487811
0002f0 37 35 b9 3d c5 b6 41 bd e6 16 2b be 6d e2 b2 be
       0.09043353 -0.047293443 -0.16707954 -0.34938374
000300 f5 03 45 bf 49 14 86 3e 56 28 9f 3e 0e b3 3c 3e
       -0.7695916 0.2618735 0.3108546 0.18427679
000310 67 76 96 3d cd d1 4c 3f e5 1e 3f 3e 13 c4 2e 3e
       0.07346802 0.8000763 0.18664129 0.17066984
000320 5f a0 fe bd 83 4e 78 be 74 a3 db bd c3 b8 16 bf
       -0.12432932 -0.242487 -0.107245356 -0.58875674
000330 d8 ce 30 be 12 64 67 be 0c c3 11 3d 13 c9 37 be
       -0.17266405 -0.22596768 0.0355864 -0.17947797
000340 c2 6e 02 3f 37 d3 20 be b2 84 10 bf 61 1e b5 be
       0.50950253 -0.15705572 -0.56452477 -0.3537474
000350 2f 2f bd 3e cc 31 1e 3d 9b ea a2 3e d6 c9 48 3d
       0.3695006 0.03862171 0.31819615 0.04902061
000360 82 33 04 bf ca ed a9 3d 29 8f e9 3c 29 7a ab bd
       -0.51641095 0.08297308 0.028510647 -0.083729096
000370 98 03 a7 3d cc 2d f1 bd 81 4c 78 3b e4 fd 83 bd
       0.08154982 -0.11776313 0.0037887397 -0.0644491
000380 a8 d3 5e be 74 1a 2f 3d 5e 8e 29 bf a0 91 25 3c
       -0.21760428 0.042749837 -0.6623286 0.0101055205
000390 ec 4b c7 be 84 ca fe bd 1d 25 bd bb b5 84 1d bf
       -0.3892511 -0.124409705 -0.0057722465 -0.6153062
0003a0 76 d1 13 3d 2d 97 e3 bf d5 b4 ef bd c5 e1 24 3f
       0.03608843 -1.778051 -0.11704413 0.64406997
0003b0 c7 a8 5f be 22 47 01 be 1a bc 2b be 0b e8 13 3f
       -0.21841727 -0.12624791 -0.16770974 0.57775944
0003c0 a6 0d 1a be 10 87 57 bf 40 b2 09 3f a0 db c1 3e
       -0.15044269 -0.84190464 0.5378761 0.37862873
0003d0 ad 01 81 be 5b 2a a6 3e 0a 1a 48 bf f3 dd 98 be
       -0.2519659 0.3245419 -0.7816473 -0.29856834
0003e0 fa 02 cc 3e 8d 82 13 be 43 19 c5 3d 84 4c 29 3c
       0.3984602 -0.1440527 0.09623959 0.010333184
0003f0 63 a0 65 bd 62 99 5d 3d 46 d0 0d 3e 3b be 12 be
       -0.05606116 0.054101355 0.13848981 -0.1433038

layers.3.bias f4 [16]
000000 99 b1 91 3e 72 48 ee bd 93 4a fa bc 6f 43 bf be
       0.2845581 -0.116349116 -0.030553138 -0.37356135
000010 61 29 06 bf d8 cc 14 be 37 5a e5 bf f0 17 a5 be
       -0.5240689 -0.14531267 -1.7918156 -0.32244825
000020 30 d0 37 3b 05 0d e2 3e ca 30 ea bf 13 18 69 be
       0.0028047673 0.44150558 -1.8296139 -0.2276309
000030 16 c4 a6 3f e6 e5 c8 3f e2 62 1f bd e8 88 0d be
       1.3028591 1.569516 -0.03891266 -0.13821757

layers.4.weight f4 [1, 16]
000000 bf 51 1d bf cd 6d 04 be 39 c3 0f be e4 fd 30 3f
       -0.6145286 -0.1293251 -0.14039315 0.69137406
000010 fb f5 96 3e 86 f8 14 bf 0b e3 84 3f 1c 1e 79 3f
       0.29484543 -0.58191717 1.0381788 0.9731157
000020 4e b5 42 bd 8b 8d c3 3f be e7 8d 3f a6 7c 15 3f
       -0.047536187 1.527757 1.1086347 0.58393323
000030 af 1f b7 3f 20 a3 3f bf b4 f9 d8 be dc f6 c2 bd
       1.4306544 -0.74858284 -0.42378008 -0.09519741
