AI_7/saved_models/FrozenLake/QAgent/run-2024-06-04_20-04-03/model_best.npy (npy, 928 bytes, 1 tensors)

array f8 [25, 4]
000000 00 00 00 00 00 00 00 00 00 00 00 00 00 00 00 00
       0.0 0.0
000010 00 00 00 00 00 00 00 00 00 00 00 00 00 00 00 00
       0.0 0.0
000020 06 cf c7 e4 26 4f 86 40 b3 bd d6 8c e9 f9 75 40
       713.893991051679 351.6195190800019
000030 be ea 9a 90 68 cc 74 40 c2 d3 83 ba 66 5c 8e 40
       332.7755285312122 971.5501604365347
000040 7a ad b5 54 96 b3 69 40 9e 31 b4 c4 f3 f4 6e 40
       205.61210093959727 247.65475688165765
000050 2a d2 60 61 1c b9 5f 40 e6 39 00 35 d6 ef 8c 40
       126.89235720114871 925.9795932786626
000060 59 3e 8e 31 5e a6 4a 40 da cb 16 e5 04 7e 87 40
       53.29974955983625 751.7523900776825
000070 00 00 00 00 00 00 e0 bf 2f dd 24 06 81 95 e1 bf
       -0.5 -0.5495
000080 8b 66 40 cd 85 9d 41 40 88 54 8e 43 17 4c 81 40
       35.23064580578383 553.511359321551
000090 00 00 00 00 00 00 e0 bf 00 00 00 00 00 00 e0 bf
       -0.5 -0.5
0000a0 00 00 00 00 00 00 00 00 00 00 00 00 00 00 00 00
       0.0 0.0
0000b0 00 00 00 00 00 00 00 00 00 00 00 00 00 00 00 00
       0.0 0.0
0000c0 0c dc 30 99 33 89 47 c0 6f 82 49 ff f1 26 69 c0
       -47.07188715825768 -201.21704067570997
0000d0 f4 57 92 8f 80 21 8a 40 00 00 00 00 00 20 59 c0
       836.187773841199 -100.5
0000e0 a5 a4 e3 c6 f8 14 8b 40 b3 42 00 61 0b 06 66 40
       866.6214731011029 176.18888902712715
0000f0 a9 0e fa da 03 86 68 40 aa 5f 7a 3d ea 66 67 40
       196.18797062720594 187.2160937681304
000100 32 cd 35 10 58 b5 4d 40 3f b6 b0 65 79 a8 1e c0
       59.41674997927693 -7.6645255936724075
000110 d8 9b 96 70 a2 6b 17 c0 c4 2c df 34 f5 9f 88 40
       -5.855111846153669 787.9947297511612
000120 e9 9d ab 28 37 e4 83 40 00 00 00 00 00 00 00 00
       636.5269330413404 0.0
000130 00 00 00 00 00 00 00 00 00 00 00 00 00 00 00 00
       0.0 0.0
000140 66 66 66 66 66 de 67 c0 a8 19 eb d2 26 fa 51 c0
       -190.95 -71.90861962279325
000150 43 d2 88 39 3a 16 84 40 e2 c2 fe 02 5f 61 67 c0
       642.7784300507705 -187.04284810789164
000160 48 6d 45 51 db 7b 5b 40 46 02 47 c2 a1 f5 61 40
       109.93526107578248 143.67599595898554
000170 6a 42 22 b4 98 b4 88 40 c1 4e bf 58 f1 cb 4f 40
       790.5745623280066 63.593302815830164
000180 6c be b1 22 5d 23 8a 40 13 15 9d 54 43 67 4f 40
       836.4204763303983 62.80674226446185
000190 b1 3d 39 4c 57 cc 32 40 ba 38 c3 88 52 e4 33 c0
       18.798207057928895 -19.891884372388382
0001a0 b7 a7 a2 6a 37 42 85 40 f4 fd d4 78 e9 89 70 c0
       680.2770588595803 -264.6195
0001b0 cd cc cc cc cc 3c 59 c0 01 b4 31 1e 73 20 5a c0
       -100.95 -104.50702624181578
0001c0 f3 f1 2b 6f 29 5b 20 c0 6b 28 57 af b9 cb 4d 40
       -8.178050493349451 59.59160415416485
0001d0 00 00 00 00 00 00 00 00 00 00 00 00 00 00 00 00
       0.0 0.0
0001e0 12 ce 42 3a 3e 84 37 40 f0 1e a8 0e 1d 8c 83 40
       23.516574517545514 625.5141881117288
0001f0 28 90 c5 e4 64 bb 33 40 68 fb 96 35 63 1c 41 c0
       19.732008264764005 -34.22177762863322
000200 05 ec b3 22 28 09 87 40 fc c9 2a 5e 9d 40 56 40
       737.1445974403765 89.00960497072805
000210 ef 17 66 c2 a3 da 45 40 28 46 41 dd d5 c1 49 40
       43.708122539377534 51.51433911978921
000220 fa eb b2 12 c5 ca 63 c0 92 1d 44 4a 55 73 60 c0
       -158.33655676789914 -131.60416138938723
000230 b4 38 e7 d0 27 db 66 c0 54 35 cd 46 f0 c3 84 40
       -182.848610355 664.4923225433254
000240 00 00 00 00 00 00 00 00 00 00 00 00 00 00 00 00
       0.0 0.0
000250 00 00 00 00 00 00 00 00 00 00 00 00 00 00 00 00
       0.0 0.0
000260 c8 06 d0 97 37 47 62 c0 8d 04 18 2c 83 3f 5c c0
       -146.22553625707792 -112.99238111825453
000270 66 11 be 7c f9 01 59 c0 00 00 00 00 00 20 59 c0
       -100.03085249482464 -100.5
000280 3a b7 e1 03 09 08 63 40 ba b6 ce f6 e7 be 52 40
       152.25110048375228 74.98290796458141
000290 a5 14 41 6d 1c ce 84 40 40 02 49 76 2c a8 e0 3f
       665.7638802608896 0.5205290136582974
0002a0 94 39 a7 b6 72 d1 84 40 40 c7 92 4a e7 60 1a 40
       666.1810124458739 6.59463230629791
0002b0 e6 9f cd 4f 38 92 61 40 b0 98 13 d7 67 50 59 40
       140.56937399064117 101.25633789933886
0002c0 67 b7 af 24 3f 20 7c 40 2b 11 e8 a5 4b 15 66 c0
       450.01541584624505 -176.6654843838272
0002d0 00 75 c4 12 0a 23 67 c0 40 3d 5f 84 58 58 52 c0
       -185.09497965212358 -73.38040265370091
0002e0 00 00 00 00 00 00 00 00 00 00 00 00 00 00 00 00
       0.0 0.0
0002f0 00 00 00 00 00 00 00 00 00 00 00 00 00 00 00 00
       0.0 0.0
000300 a6 8f b7 ff 3d 1b 4f c0 fc 36 7f 58 b6 af 59 c0
       -62.21282955611177 -102.74550449775046
000310 00 00 00 00 00 20 59 c0 16 1f fa 49 50 76 59 c0
       -100.5 -101.84865045000001
