AI_7/saved_models/FrozenLake/QAgent/run-2024-06-04_20-04-03/model.npy (npy, 928 bytes, 1 tensors)

array f8 [25, 4]
0.0 0.0 0.0 0.0 845.7749380361952 743.996233189757 673.4088083738777 940.6353778472288
809.607483512706 785.1745487996554 748.0282567340114 910.3827873544647 260.1207378247675 856.2821691288098 153.54792715903017 172.51220455945236
100.40781568156382 801.4026737321642 -0.5 159.71379144500938 0.0 0.0 0.0 0.0
295.4563739292127 234.65658997864006 699.6360898253896 -243.0373355700886 860.6039573755025 682.9135888817938 748.2190237416569 653.8697111923279
406.2226694432798 242.99084933555886 260.4441116815336 851.2392606815486 803.3424913894195 130.13209735559676 246.32002300745188 77.08440915144813
-190.95 -71.90861962279325 360.2652567640806 -187.04284810789164 579.9480598334436 629.9199337117648 784.0829276917175 642.3286427008188
860.3185418078176 560.1470420429605 421.1680753919994 562.5203318451987 784.4085846132857 -280.81769678438343 -100.95 -12.89035207110578
64.5254803796026 -19.56757608960251 53.27379048861676 662.5617979518026 23.516574517545514 683.0082506525318 223.46231284524163 196.8569815937298
729.0633314695111 564.2492513170362 553.9304285311941 566.9612927055308 287.6391180881408 40.43129146492078 -182.848610355 404.941179204441
0.0 0.0 0.0 0.0 -130.5191381721529 -278.15793156985967 -273.0223353675144 -272.355
587.4015994829259 565.6401017048225 697.8188595262878 570.404867762769 697.6287992217963 532.3429180647702 486.9634360363099 588.2455328550492
566.0109507849882 11.783114507508834 -340.87693351822014 133.48914441125325 0.0 0.0 0.0 0.0
-354.7358360360604 -355.7427158240339 -323.9211827493782 -346.892918511872
00000000: 0000 0000 0000 0000 0000 0000 0000 0000
00000010: 0000 0000 0000 0000 0000 0000 0000 0000
00000020: 148f b612 336e 8a40 9249 1b49 f83f 8740
00000030: 1621 533d 450b 8540 9b13 fb40 1565 8d40
00000040: 74df 5020 dc4c 8940 9c50 d779 6589 8840
00000050: c4a3 aade 3960 8740 fc05 d1f2 0f73 8c40
00000060: 440c c98a ee41 7040 6e61 e3e1 41c2 8a40
00000070: fe93 899e 8831 6340 b8f6 d0fa 6390 6540
00000080: 34c7 f1a6 191a 5940 d474 01ad 380b 8940
00000090: 0000 0000 0000 e0bf 5b0f 2861 d7f6 6340
000000a0: 0000 0000 0000 0000 0000 0000 0000 0000
000000b0: 0000 0000 0000 0000 0000 0000 0000 0000
000000c0: 73cb bf4e 4d77 7240 7ea4 fcc8 0255 6d40
000000d0: ef2a 43b6 16dd 8540 4290 5dda 3161 6ec0
000000e0: b1bf 9ae7 d4e4 8a40 590a b007 4f57 8540
000000f0: b6fb 848f c061 8740 1c40 242b f56e 8440
00000100: 498b d50d 9063 7940 a36f aa09 b55f 6e40
00000110: 56bf d914 1b47 7040 c213 8101 ea99 8a40
00000120: bf25 206c bd1a 8940 a3c5 3b24 3a44 6040
00000130: 26df e3a0 3dca 6e40 fb3c a4f5 6645 5340
00000140: 6666 6666 66de 67c0 a819 ebd2 26fa 51c0
00000150: 4e6c e07d 3e84 7640 e2c2 fe02 5f61 67c0
00000160: 55da 64a0 951f 8240 24b4 3406 5caf 8340
00000170: e05e fed5 a980 8840 b0a0 6c0f a112 8440
00000180: e2b7 a55f 8ce2 8a40 38ed 6024 2d81 8140
00000190: 667e d26f b052 7a40 9111 bea3 2994 8140
000001a0: b07d 02c8 4483 8840 8a2f 3949 158d 71c0
000001b0: cdcc cccc cc3c 59c0 80a6 063a dcc7 29c0
000001c0: 4d45 7578 a121 5040 98d5 a6aa 4c91 33c0
000001d0: 4d48 1591 0ba3 4a40 9eaf ec8f 7eb4 8440
000001e0: 12ce 423a 3e84 3740 5cd6 b7e5 1058 8540
000001f0: acda 4e44 cbee 6b40 feca a964 6c9b 6840
00000200: ddf2 edb3 81c8 8640 3e79 7977 fea1 8140
00000210: f485 8384 714f 8140 1be1 3aba b0b7 8140
00000220: 8c6d e3d3 39fa 7140 7970 088f 3437 4440
00000230: b438 e7d0 27db 66c0 feeb ec11 0f4f 7940
00000240: 0000 0000 0000 0000 0000 0000 0000 0000
00000250: 0000 0000 0000 0000 0000 0000 0000 0000
00000260: 10f0 a7c7 9c50 60c0 daf8 40e3 8662 71c0
00000270: 4c90 547c 5b10 71c0 48e1 7a14 ae05 71c0
00000280: 0f2a ca79 365b 8240 9d82 a4ed 1ead 8140
00000290: 652b 3906 8dce 8540 6142 4f2b 3dd3 8140
000002a0: ecea e2c7 07cd 8540 2a8b d34b bea2 8040
000002b0: d2bb e73b 6a6f 7e40 3df4 edd9 f661 8240
000002c0: 1e7b 5d6d 16b0 8140 148c 7d62 f490 2740
000002d0: 59d8 70eb 074e 75c0 532b 2e12 a7af 6040
000002e0: 0000 0000 0000 0000 0000 0000 0000 0000
000002f0: 0000 0000 0000 0000 0000 0000 0000 0000
00000300: 90e1 01fc c52b 76c0 28e7 fc29 e23b 76c0
00000310: 8063 1f2a bd3e 74c0 bbe7 eb64 49ae 75c0
