AI_7/saved_models/FrozenLake/QAgent/run-2024-06-12_21-07-30/model_best.npy (npy, 928 bytes, 1 tensors)

array f8 [25, 4]
0.0 0.0 0.0 0.0 417.4909274023286 422.42514784401715 320.5071128044862 968.1058936758577
296.89481062069535 454.80240862965985 303.8725745494878 930.5004498201044 0.9814 137.2899646028667 940.8489982292849 89.78387131314123
137.04055697433586 36.40062164265465 86.97826235537579 872.1386549609749 0.0 0.0 0.0 0.0
98.36047008376258 -29.650782975294618 753.2147547692537 -170.63291384954437 900.5258056895988 205.93613649999563 214.90654746200943 318.97992281151824
-3.647885286112605 30.952189796248437 -8.410671945488334 887.6568749764415 -1.4490500000000002 20.557726803757888 -1.4985005 755.895905516151
-524.3116155 546.6807638626626 -185.94473067209458 -225.12661418081439 109.15319635989164 277.9841855677062 790.9120178057732 222.46708357840967
862.5207160776733 285.4717176874974 268.0855363353588 377.9789795401004 -101.39509500000001 -260.07834979821735 -103.27111251098464 497.8183074946828
-1.4985005 77.02314615714087 -5.116065513343824 -3.2385476083343456 -40.569438028765425 640.025606156909 34.26738328954012 134.38412630457543
765.3914333343807 328.82320401270164 284.99480161983934 232.83644723605437 -8.524572426446511 -38.76414628845322 -594.5056645200709 627.3807314816474
0.0 0.0 0.0 0.0 -162.42717095205535 -97.62871526357605 -98.85599800966892 -100.5
335.52020161013525 322.0283129293755 676.3768916618851 54.695618270924264 669.272439565973 147.3634241768268 285.5612639325998 81.48864561134792
487.65540878086074 -216.5205248898493 -182.804145 -182.30177461639875 0.0 0.0 0.0 0.0
-87.592490566941 -100.5 -8.866812127099799 -98.93160403383119
00000000: 0000 0000 0000 0000 0000 0000 0000 0000
00000010: 0000 0000 0000 0000 0000 0000 0000 0000
00000020: 631b b1d6 da17 7a40 4c60 d367 cd66 7a40
00000030: 6bea 5022 1d08 7440 4c95 c8de d840 8e40
00000040: 0000 f124 518e 7240 ad66 6eaa d66c 7c40
00000050: f415 bb10 f6fd 7240 1ad5 d5eb 0014 8d40
00000060: ba6b 09f9 a067 ef3f ecc9 d863 4729 6140
00000070: 2069 95bf ca66 8d40 b58d 95f2 2a72 5640
00000080: b6cc 233e 4c21 6140 c1a2 ea91 4733 4240
00000090: cecf b5d9 9bbe 5540 86d6 21f7 1b41 8b40
000000a0: 0000 0000 0000 0000 0000 0000 0000 0000
000000b0: 0000 0000 0000 0000 0000 0000 0000 0000
000000c0: 963c 1df1 1197 5840 18af 8bb6 99a6 3dc0
000000d0: d634 59d1 b789 8740 509f 8bd4 4054 65c0
000000e0: 0507 9dd9 3424 8c40 5782 88d4 f4bd 6940
000000f0: 46b3 d26f 02dd 6a40 34c1 8ac3 adef 7340
00000100: 524e 1b7b de2e 0dc0 d178 e2b5 c2f3 3e40
00000110: a183 de97 43d2 20c0 04eb aa47 41bd 8b40
00000120: 024d 840d 4f2f f7bf 243e 0e2f c78e 3440
00000130: 66a2 08a9 dbf9 f7bf 65e1 82d0 2a9f 8740
00000140: 6a6b 4430 7e62 80c0 7af3 5234 7215 8140
00000150: 9485 d13b 3b3e 67c0 d8b9 2e39 0d24 6cc0
00000160: 74e6 1af8 cd49 5b40 e5a7 5d39 bf5f 7140
00000170: 53c9 fdcf 4bb7 8840 95b8 4259 f2ce 6b40
00000180: dee0 306d 2af4 8a40 f08b d827 8cd7 7140
00000190: c62f 595b 5ec1 7040 f342 73e6 a99f 7740
000001a0: 0bf4 893c 4959 59c0 decf b7eb 4041 70c0
000001b0: ca0d 4ae8 59d1 59c0 c07b 99c9 171d 7f40
000001c0: 66a2 08a9 dbf9 f7bf aefc 043a 7b41 5340
000001d0: 4d05 c0e0 d976 14c0 25ae 02a6 8be8 09c0
000001e0: b752 6758 e348 44c0 0134 0071 3400 8440
000001f0: 2e09 9a9d 3922 4140 ea75 3fc3 4acc 6040
00000200: d6cd cca7 21eb 8740 d587 f8d7 2b8d 7440
00000210: 7c73 1ab5 eacf 7140 dc75 fe2c c41a 6d40
00000220: 38f1 cfc1 940c 21c0 1822 ab8b cf61 43c0
00000230: 9e03 d799 0b94 82c0 de71 f2bc 0b9b 8340
00000240: 0000 0000 0000 0000 0000 0000 0000 0000
00000250: 0000 0000 0000 0000 0000 0000 0000 0000
00000260: 209c 6a62 ab4d 64c0 88e3 f1de 3c68 58c0
00000270: 063e e0ab c8b6 58c0 0000 0000 0020 59c0
00000280: b86d ecbe 52f8 7440 8c1b 42f8 7320 7440
00000290: 748f c6df 0323 8540 550f fe04 0a59 4b40
000002a0: ec8f cbf4 2dea 8440 8041 bd2b a16b 6240
000002b0: 0caf e3ef fad8 7140 b004 3ef8 455f 5440
000002c0: eef4 ea8d 7c7a 7e40 0455 d023 a810 6bc0
000002d0: be87 4b8e bbd9 66c0 4286 3d23 a8c9 66c0
000002e0: 0000 0000 0000 0000 0000 0000 0000 0000
000002f0: 0000 0000 0000 0000 0000 0000 0000 0000
00000300: ce0c 8e5d ebe5 55c0 0000 0000 0020 59c0
00000310: f456 93cc cebb 21c0 1b88 8666 9fbb 58c0
