AI_7/saved_models/FrozenLake/QAgent/run-2024-06-12_21-07-30/model.npy (npy, 928 bytes, 1 tensors)

array f8 [25, 4]
0	0x0000000000000000	0.0
1	0x0000000000000000	0.0
2	0x0000000000000000	0.0
3	0x0000000000000000	0.0
4	0x4089832fef88c139	816.3984060939757
5	0x40848658a0a1daa4	656.793275131688
6	0x4087d7ac9c4d2d01	762.9592824963912
7	0x408ed0da12ed1d04	986.1064814114075
8	0x40847313a7e756f1	654.3845975945861
9	0x408752351570dea7	746.2759198015164
10	0x4085951b9243fc31	690.638462573179
11	0x408d6a89045cbe13	941.3169028516298
12	0x4056a9d98cde932c	90.65390321479634
13	0x407094e4f857f9d6	265.3059009014663
14	0x408d2dcfbbc60773	933.7264323683761
15	0x407350a3a3cd469a	309.0399511355005
16	0x40714f8b1c929ce8	276.97146279593153
17	0x405c3774edd7237e	112.86651178369172
18	0x40721bbfe9c014b6	289.73435378104784
19	0x408be4af4aa30832	892.585591577232
20	0x0000000000000000	0.0
21	0x0000000000000000	0.0
22	0x0000000000000000	0.0
23	0x0000000000000000	0.0
24	0x406ce7d735ed52b4	231.24502083160553
25	0xc040f5d450869984	-33.92054182598352
26	0x4082332fbc0c4758	582.3983078917763
27	0xc06c407e8801e829	-226.01544571278035
28	0x408b8e4d67e7bfae	881.7877958398219
29	0x4085c91a518babfd	697.1378508483755
30	0x408733eca0a3fe1f	742.4905407726218
31	0x4083c019d55f11a7	632.0126140048277
32	0x40556c7380408ee1	85.69454962067131
33	0x40613e4694acc136	137.94611581555517
34	0xc020d24397de83a1	-8.410671945488334
35	0x408a8cfa13cb9f2a	849.6221080692242
36	0xbff72f4f0d844d02	-1.4490500000000002
37	0x40596ac80cf72c66	101.66846012247115
38	0xbff7f9dba908a266	-1.4985005
39	0x40895b80d8a6b58b	811.4379132293847
40	0xc081e30b2b70c713	-572.3804539500001
41	0x407bb360be715961	443.21111912037856
42	0xc05a16623f1f20ab	-104.34974649467283
43	0xc06c240d392eb9d8	-225.12661418081439
44	0x40849efeb341874c	659.8743653411307
45	0x40833f6cc4214597	615.9281084632265
46	0x4088e00b9760904d	796.005659822849
47	0x407dede4bef54a57	478.868346174398
48	0x4089bd9527edeb16	823.6978300654762
49	0x407f95ffb2c56a63	505.37492634883364
50	0x407e538d31b52fff	485.2219712331425
51	0x4084636ff6e8971f	652.4296701594466
52	0xc02fe428e108fc08	-15.94562438234972
53	0xc0669b59964ed56b	-180.85468593022537
54	0xc0682e3542215302	-193.4440012598862
55	0x407f65b18d921b57	502.35584790299384
56	0xbff7f9dba908a266	-1.4985005
57	0x404e30f184338074	60.382370495936726
58	0xc01476d9e0c0054d	-5.116065513343824
59	0x4081190df980398a	547.1318235414085
60	0x4065e65cd24adf40	175.19883074401332
61	0x408425c7618fcaf2	644.7223540529069
62	0x406bd2acc0fad940	222.58358811372636
63	0x40751c82aaa8c3fd	337.78190103458456
64	0x40873a7f99d1c7d9	743.3123051060785
65	0x4082fad76c98fe54	607.3551876022925
66	0x40803f31ade5c7d9	519.8992574645628
67	0x407e1077a0fb9f78	481.02920625963407
68	0x4064d620f78a404b	166.6915242862909
69	0xc04361cf8bab2218	-38.76414628845322
70	0xc08056deafda4dca	-522.8587338500013
71	0x4083fc94de11c51d	639.5726891887931
72	0x0000000000000000	0.0
73	0x0000000000000000	0.0
74	0x0000000000000000	0.0
75	0x0000000000000000	0.0
76	0xc053868c4f77190e	-78.10231386786128
77	0xc0678bb4fdecd997	-188.36584373721846
78	0xc0644e77287b7450	-162.45204567062547
79	0xc067de6666666666	-190.95
80	0x4082785603572392	591.0419985587816
81	0x408326bb40c6a8f3	612.8414321441945
82	0x40854db1f951e826	681.711901321313
83	0x4077583c841cdc7b	373.5147744300263
84	0x4086010b5af76ad6	704.1305445985297
85	0x4082e056aed2760e	604.0423256342199
86	0x4077b83f37cbfc9b	379.5154340713722
87	0x407d499017cf5d06	468.59767895699804
88	0x407dace393671200	474.80556049596635
89	0xc06b10a823d05504	-216.5205248898493
90	0xc0709061333b96af	-265.0237305
91	0x4058713caa94a19f	97.76932777895716
92	0x0000000000000000	0.0
93	0x0000000000000000	0.0
94	0x0000000000000000	0.0
95	0x0000000000000000	0.0
96	0xc055e5eb5d8e0cce	-87.592490566941
97	0xc059200000000000	-100.5
98	0xc05bc80a4ccf8392	-111.12562866463693
99	0xc058bb9f6686881b	-98.93160403383119
