AI_7/saved_models/FrozenLake/QAgent/run-2024-06-04_19-31-39/model_best.npy (npy, 928 bytes, 1 tensors)

array f8 [25, 4]
00000000: 0000 0000 0000 0000 0000 0000 0000 0000
00000010: 0000 0000 0000 0000 0000 0000 0000 0000
00000020: 9c80 9e4e 962c 5540 86ab d6a5 2e13 6040
00000030: 0000 0000 0000 0000 e7a2 fcf2 1d39 8e40
00000040: 0000 0000 0000 e0bf 0000 0000 0000 e0bf
00000050: 2417 0e45 8619 1a40 9b67 f8f1 fc6f 8b40
00000060: 0000 0000 0000 e0bf df50 e156 0f80 7140
00000070: 0000 0000 0000 0000 0000 0000 0000 0000
00000080: a819 e1e8 f445 b4bf 1f80 3018 29d6 5840
00000090: 0000 0000 0000 0000 0000 0000 0000 0000
000000a0: 0000 0000 0000 0000 0000 0000 0000 0000
000000b0: 0000 0000 0000 0000 0000 0000 0000 0000
000000c0: 0300 36bc 2255 8940 2fdd 2406 8195 e1bf
000000d0: 3211 34dc 71a8 41c0 b014 b487 26bb 6bc0
000000e0: 0000 0000 0000 e0bf 2fdd 2406 8195 e1bf
000000f0: f455 c60c 3acc d8bf 397d 53cc 07ae 8540
00000100: 2b26 fe98 402b 7240 0000 0000 0000 e0bf
00000110: 0000 0000 0000 e0bf 2451 ea3e 4c3a 5040
00000120: 0000 0000 0000 e0bf 745a f1ca 2582 5240
00000130: 0000 0000 0000 0000 37fc 52fc d592 f13f
00000140: 90c2 f528 5ccb 66c0 5f01 2412 a888 6c40
00000150: 0a95 4078 35a4 63c0 7796 42e0 32f6 65c0
00000160: c30b d157 8011 5040 2855 92e7 f074 3240
00000170: 11d3 9489 6278 8140 50b3 1c0b b98d 23c0
00000180: 2ca4 b010 d22e 8240 3aa9 3720 49a3 38c0
00000190: 8484 27e6 650a 24c0 8a87 9505 8b2c 5040
000001a0: 68f4 56ab e09d 6940 197f 4286 d344 57c0
000001b0: cdcc cccc cc3c 59c0 651c 2d3f 6768 59c0
000001c0: 4b5d 0f0e 793c 5440 9643 8b6c e7fb efbf
000001d0: e16e d3b6 99a1 f5bf 6688 daec c472 f0bf
000001e0: 0872 8f1b d089 44c0 c702 cc4e 1490 44c0
000001f0: 6896 c717 0397 7940 8780 4ce9 b76c 42c0
00000200: 42f9 8f91 b87d 7f40 d4ad 7194 c519 42c0
00000210: 407e a47b 6d3a 1840 d87a 3e7e 619b 1a40
00000220: 7a05 1248 9e27 69c0 ac34 b81c aba3 69c0
00000230: 6666 6666 66de 67c0 ef00 368d 4165 7b40
00000240: 0000 0000 0000 0000 0000 0000 0000 0000
00000250: 0000 0000 0000 0000 0000 0000 0000 0000
00000260: a8d7 94e6 dab0 3240 4439 a4bc 333a 55c0
00000270: 66a2 08a9 dbf9 f7bf 0000 0000 0020 59c0
00000280: 4d1e 1ccc 944d 42c0 994e cf46 6975 42c0
00000290: c728 cb61 87c0 7c40 381d c2ed 37c5 1c40
000002a0: 450a 9258 1b21 7e40 bcb9 3abf e100 41c0
000002b0: d599 9c7c 1865 43c0 ec42 67a3 f7d9 1ac0
000002c0: d47b c7fc c1e6 4cc0 269a 5d5e 42fa 66c0
000002d0: 4373 9d46 daf6 67c0 2c2b 4cf3 58e9 7540
000002e0: 0000 0000 0000 0000 0000 0000 0000 0000
000002f0: 0000 0000 0000 0000 0000 0000 0000 0000
00000300: e4fc 0370 9e76 1340 0000 0000 0000 0000
00000310: 0000 0000 0000 0000 0000 0000 0000 0000
0.0 0.0 0.0 0.0 84.69667401770351 128.59944431236016 0.0 967.1396236169065
-0.5 -0.5 6.524926260933885 877.9985083967798 -0.5 280.00374496473336 0.0 0.0
-0.07919245420007448 99.34625820862173 0.0 0.0 0.0 0.0 0.0 0.0
810.6419605463747 -0.5495 -35.31597473661749 -221.848453380318 -0.5 -0.5495 -0.38746501205000006 693.7538076899137
290.70327090527525 -0.5 -0.5 64.91090367205157 -0.5 74.03355668611204 0.0 1.0983486038601435
-182.35500000000002 228.27051646263405 -157.13152706731518 -175.6937104511778 64.27345843710559 18.456800912118666 559.0481139780915 -9.776802394154998
581.8525708961583 -24.63783456190979 -10.020308677982264 64.6959852180718 204.93367545111983 -93.07541042798802 -100.95 -101.63130168347705
80.9448886060756 -0.9995 -1.3519532338750013 -1.028019833764597 -41.076663441697804 -41.12561974488704 409.43825509990575 -36.84936252818539
503.85756069411957 -36.201342158801395 6.057058269419542 6.6517390943178825 -201.23807147521785 -205.11463771798788 -190.95 438.3285038098829
0.0 0.0 0.0 0.0 18.690840159738997 -84.90940776860685 -1.4985005 -100.5
-36.6061034333512 -36.91727528688825 460.033052247611 7.192596163723742 482.06917626425667 -34.00688925139863 -38.789809776749884 -6.712858727624489
-57.80279502621093 -183.82060163766545 -191.714145 350.5842164016092 0.0 0.0 0.0 0.0
4.865838766330146 0.0 0.0 0.0
