AI_7/saved_models/FrozenLake/QAgent/run-2024-06-04_19-31-39/model.npy (npy, 928 bytes, 1 tensors)

array f8 [25, 4]
00000000: 0000 0000 0000 0000 0000 0000 0000 0000
00000010: 0000 0000 0000 0000 0000 0000 0000 0000
00000020: 9c80 9e4e 962c 5540 86ab d6a5 2e13 6040
00000030: 0000 0000 0000 0000 d3cf 955f ff55 8e40
00000040: 0000 0000 0000 e0bf 0000 0000 0000 e0bf
00000050: 2417 0e45 8619 1a40 246e 7c39 15ae 8a40
00000060: 0000 0000 0000 e0bf cbe1 5b9f ab35 7340
00000070: 0000 0000 0000 0000 0000 0000 0000 0000
00000080: a819 e1e8 f445 b4bf 1cc7 fc40 41de 5940
00000090: 0000 0000 0000 0000 0000 0000 0000 0000
000000a0: 0000 0000 0000 0000 0000 0000 0000 0000
000000b0: 0000 0000 0000 0000 0000 0000 0000 0000
000000c0: c4ae 5a15 3202 8540 2fdd 2406 8195 e1bf
000000d0: 3211 34dc 71a8 41c0 b014 b487 26bb 6bc0
000000e0: 0000 0000 0000 e0bf 2fdd 2406 8195 e1bf
000000f0: f455 c60c 3acc d8bf ec01 3fe2 6e2c 8340
00000100: 3cc4 e02e ddf0 7540 0000 0000 0000 e0bf
00000110: 0000 0000 0000 e0bf 2451 ea3e 4c3a 5040
00000120: 0000 0000 0000 e0bf 821c f052 69c0 6340
00000130: 0000 0000 0000 0000 37fc 52fc d592 f13f
00000140: 90c2 f528 5ccb 66c0 b4fb 2c97 2c65 7140
00000150: 0a95 4078 35a4 63c0 7796 42e0 32f6 65c0
00000160: 4272 7d6e c332 5e40 2855 92e7 f074 3240
00000170: 29be 1b2c c0ef 8040 50b3 1c0b b98d 23c0
00000180: ce60 7cb3 d3eb 8140 3aa9 3720 49a3 38c0
00000190: 8484 27e6 650a 24c0 8a87 9505 8b2c 5040
000001a0: 7367 db8a 0575 6c40 197f 4286 d344 57c0
000001b0: cdcc cccc cc3c 59c0 651c 2d3f 6768 59c0
000001c0: 81aa d6e6 102d 5540 9643 8b6c e7fb efbf
000001d0: e16e d3b6 99a1 f5bf 6688 daec c472 f0bf
000001e0: 0872 8f1b d089 44c0 c702 cc4e 1490 44c0
000001f0: 4228 cdc9 a611 7e40 8780 4ce9 b76c 42c0
00000200: 379a bd4c 132e 8140 d4ad 7194 c519 42c0
00000210: 407e a47b 6d3a 1840 d87a 3e7e 619b 1a40
00000220: 7a05 1248 9e27 69c0 ac34 b81c aba3 69c0
00000230: 6666 6666 66de 67c0 ce9e 8dae 8874 7f40
00000240: 0000 0000 0000 0000 0000 0000 0000 0000
00000250: 0000 0000 0000 0000 0000 0000 0000 0000
00000260: a8d7 94e6 dab0 3240 4439 a4bc 333a 55c0
00000270: 66a2 08a9 dbf9 f7bf 0000 0000 0020 59c0
00000280: 4d1e 1ccc 944d 42c0 994e cf46 6975 42c0
00000290: 0945 73f6 a336 7f40 381d c2ed 37c5 1c40
000002a0: 180d 6c42 b499 8040 bcb9 3abf e100 41c0
000002b0: d599 9c7c 1865 43c0 ec42 67a3 f7d9 1ac0
000002c0: d47b c7fc c1e6 4cc0 269a 5d5e 42fa 66c0
000002d0: 4373 9d46 daf6 67c0 5dfd f1e1 b88f 7640
000002e0: 0000 0000 0000 0000 0000 0000 0000 0000
000002f0: 0000 0000 0000 0000 0000 0000 0000 0000
00000300: e4fc 0370 9e76 1340 0000 0000 0000 0000
00000310: 0000 0000 0000 0000 0000 0000 0000 0000
0.0 0.0 0.0 0.0 84.69667401770351 128.59944431236016 0.0 970.7496940330551
-0.5 -0.5 6.524926260933885 853.7603635521996 -0.5 307.35440002337845 0.0 0.0
-0.07919245420007448 103.47273277936296 0.0 0.0 0.0 0.0 0.0 0.0
672.2744547924599 -0.5495 -35.31597473661749 -221.848453380318 -0.5 -0.5495 -0.38746501205000006 613.5541424677335
351.05399978446417 -0.5 -0.5 64.91090367205157 -0.5 158.01285693070173 0.0 1.0983486038601435
-182.35500000000002 278.3233863598973 -157.13152706731518 -175.6937104511778 120.79317819834344 18.456800912118666 541.9688341300399 -9.776802394154998
573.4783696858447 -24.63783456190979 -10.020308677982264 64.6959852180718 227.6569265637623 -93.07541042798802 -100.95 -101.63130168347705
84.70415659869651 -0.9995 -1.3519532338750013 -1.028019833764597 -41.076663441697804 -41.12561974488704 481.10321979655794 -36.84936252818539
549.7594237148941 -36.201342158801395 6.057058269419542 6.6517390943178825 -201.23807147521785 -205.11463771798788 -190.95 503.2833695919079
0.0 0.0 0.0 0.0 18.690840159738997 -84.90940776860685 -1.4985005 -100.5
-36.6061034333512 -36.91727528688825 499.4150299551698 7.192596163723742 531.2130173150535 -34.00688925139863 -38.789809776749884 -6.712858727624489
-57.80279502621093 -183.82060163766545 -191.714145 360.9826373532031 0.0 0.0 0.0 0.0
4.865838766330146 0.0 0.0 0.0
