AI_7/saved_models/FrozenLake/QAgent/run-2024-06-04_19-46-05/model_best.npy (npy, 928 bytes, 1 tensors)

array f8 [25, 4]
0.0 0.0 0.0 0.0 515.4928610061505 371.78296145029043 207.33294324719253 897.6248928868212
301.6832551481481 222.67119056382128 186.24290558064007 531.436985988745 192.40559327239987 188.30651357464774 180.86378250776832 273.5995433690033
65.21248718468962 99.37971469473527 59.43322279125289 99.27724008586762 0.0 0.0 0.0 0.0
569.7801108262798 -95.41827452556542 228.5541139134976 -694.8613786368403 285.0074242429206 127.18459880211704 138.87426139106125 265.66125853653256
159.5284513399607 40.90343394880871 108.1515565559217 184.08356742177293 166.2264915785257 17.963204573290188 77.31696524747687 95.23168216209591
-564.9232981898559 -44.62269032923393 99.57350900679148 -240.54811975194173 363.37704844758497 127.70451536613022 104.62930899009537 41.21071797284365
138.28217960238425 56.23778544682687 89.387688302158 112.25408596118825 92.27547369932525 -746.4932260331178 -48.85980409494192 27.899277313876613
44.60262297207625 41.96188161219158 25.1151123880381 18.189285636046684 42.80183511315636 96.62528706408176 144.98009828087032 110.69290865808806
203.63348874348273 91.67653640114287 109.37590803987216 93.92775584837753 -46.139686565118645 -39.682049850824384 -592.9790423704588 96.68305268514851
0.0 0.0 0.0 0.0 -89.78695096308056 79.44378434502939 8.399917811143876 -429.45656806162805
113.1937229251268 103.12448672227363 124.53210746955665 111.56485217036415 153.83701436101214 103.22469169639746 71.12469531702051 105.21980479604345
-142.7616721693628 -39.84827519159411 -868.642945004742 84.21988679102763 0.0 0.0 0.0 0.0
-84.43203161776516 -0.5878134500000001 -0.3093755 -272.355
00000000: 0000 0000 0000 0000 0000 0000 0000 0000
00000010: 0000 0000 0000 0000 0000 0000 0000 0000
00000020: 1f77 1c61 f11b 8040 6bf0 9502 873c 7740
00000030: b6c3 9878 a7ea 6940 3383 d7c7 ff0c 8c40
00000040: ea41 f39c eeda 7240 e11f a264 7ad5 6b40
00000050: ae9b ece1 c547 6740 c393 82f2 7e9b 8040
00000060: ec0d be9e fa0c 6840 8c5c 8ef5 ce89 6740
00000070: 19b7 361b a49b 6640 72a6 c9ba 9719 7140
00000080: e843 d963 994d 5040 b6ec dc3e 4dd8 5840
00000090: 1028 2cd8 73b7 4d40 447c 334d bed1 5840
000000a0: 0000 0000 0000 0000 0000 0000 0000 0000
000000b0: 0000 0000 0000 0000 0000 0000 0000 0000
000000c0: 05b1 beaa 3dce 8140 6b03 8402 c5da 57c0
000000d0: 6217 1a4d bb91 6c40 9e95 7b1a e4b6 85c0
000000e0: aa08 e268 1ed0 7140 4d7e 7e77 d0cb 5f40
000000f0: 6f58 06f3 f95b 6140 bbc9 d483 949a 7040
00000100: 13d5 c812 e9f0 6340 621d 40b9 a373 4440
00000110: 66cb 441a b309 5b40 d3f0 9595 ac02 6740
00000120: cb52 446b 3fc7 6440 95a3 2d93 94f6 3140
00000130: 6ef8 9a28 4954 5340 2f51 6be1 d3ce 5740
00000140: 194f 29ea 62a7 81c0 30cc 1351 b44f 46c0
00000150: 6008 1f5f b4e4 5840 341c 6f32 8a11 6ec0
00000160: 29f6 f363 08b6 7640 c343 9ec7 16ed 5f40
00000170: 75e2 3699 4628 5a40 7e05 79ce f89a 4440
00000180: d67a 849d 0749 6140 07cb e6c0 6f1e 4c40
00000190: ddb3 98e2 cf58 5640 486b c3f1 4210 5c40
000001a0: a560 705c a111 5740 378e 7d20 f253 87c0
000001b0: 085f 820f 0e6e 48c0 8122 bd09 37e6 3b40
000001c0: 6271 e2bf 224d 4640 497e c9ef 1efb 4440
000001d0: f4fc 6501 781d 3940 4e6c 0006 7530 3240
000001e0: 40e5 7188 a266 4540 f4b5 08b4 0428 5840
000001f0: 86e6 11f7 5c1f 6240 9f66 8e9d 58ac 5b40
00000200: 8f74 2f8a 4574 6940 945d 555f 4ceb 5640
00000210: 7b63 98e0 0e58 5b40 12dd 105a 607b 5740
00000220: 0570 d63f e111 47c0 26c4 d568 4dd7 43c0
00000230: 2794 2a14 d587 82c0 1a0a 9c22 b72b 5840
00000240: 0000 0000 0000 0000 0000 0000 0000 0000
00000250: 0000 0000 0000 0000 0000 0000 0000 0000
00000260: 267f 9267 5d72 56c0 3118 74f6 66dc 5340
00000270: d6e6 ff06 c2cc 2040 73d1 4f1a 4ed7 7ac0
00000280: edf9 d6f4 654c 5c40 e53c 2897 f7c7 5940
00000290: 00ed 7c0c 0e22 5f40 79b2 b789 26e4 5b40
000002a0: 8b5a 57d2 c83a 6340 6eed 4759 61ce 5940
000002b0: 5124 1102 fbc7 5140 ada0 2248 114e 5a40
000002c0: f935 509e 5fd8 61c0 d2f3 0e48 94ec 43c0
000002d0: f3c3 59c0 2425 8bc0 4f12 0ca0 120e 5540
000002e0: 0000 0000 0000 0000 0000 0000 0000 0000
000002f0: 0000 0000 0000 0000 0000 0000 0000 0000
00000300: eb48 f167 a61b 55c0 0cc4 fc26 5ecf e2bf
00000310: e4c0 abe5 cecc d3bf 48e1 7a14 ae05 71c0
